SRSTF_IQA/regression/model/htreg_model_epoch119.pth (torch_old, 537258 bytes, 3 tensors)

weight f4 [256, 512]
000000 3f 77 f4 3a d1 11 d7 3c f4 9a 1a bd 71 b5 08 bd
       0.0018651261 0.026253613 -0.03774543 -0.03337616
000010 d8 81 53 bc ed 35 44 3c 1d 89 90 b8 c8 f7 02 3d
       -0.012909375 0.0119757475 -6.8919944e-05 0.031974584
000020 00 03 ab bb 27 7b 0f 3c 2f 20 66 bc 33 c3 9d bb
       -0.0052188635 0.008757389 -0.014045759 -0.0048145293
000030 65 03 36 bd 90 c5 ef bc 25 c1 1a bc 6e 31 f1 3b
       -0.04443683 -0.02926901 -0.009445463 0.007360629
000040 f9 6b c6 3c 5c 94 d3 3c 5e 5b dd bc de 6e 70 bc
       0.024221407 0.02582758 -0.027021106 -0.01467487
000050 58 36 99 3c 83 89 3b 3d 0a 30 e7 bb 1c 89 2f 3d
       0.018702671 0.04578544 -0.0070552872 0.042855367
000060 af 2b fa ba f1 d1 94 bb a1 99 47 3d 43 5b 15 bd
       -0.0019086505 -0.0045416285 0.048730496 -0.036463987
000070 be c5 cb bc 9c 03 19 bc dd b6 85 bc 13 ab ee 3c
       -0.024874564 -0.009339239 -0.016322548 0.029134309
000080 ba 8c d4 bc 96 66 d7 bc 7a e8 d3 bc 20 89 29 bd
       -0.02594601 -0.026294034 -0.02586769 -0.04139054
000090 01 14 02 bd 4c 9d 41 3d 8e 4d f4 3c ed 5b f9 3c
       -0.03175736 0.04726915 0.029822137 0.030439341
0000a0 28 3d 72 bb 0b 6f 5f bc 17 da 50 3c 25 9d 41 bd
       -0.0036962721 -0.013637315 0.012747309 -0.047269005
0000b0 fe 6d 0c bd 53 59 eb bc ad f6 c7 3c 79 3b e7 3c
       -0.034284584 -0.028729117 0.024409616 0.028226601
0000c0 48 5e 65 bc 06 13 30 3b 06 43 ea 3c 3f 10 3c 3d
       -0.013999529 0.0026866808 0.028596412 0.04591393
0000d0 79 1a 97 3b 27 95 b7 ba 87 9e d0 3c e0 58 eb bc
       0.00461131 -0.0014006243 0.025466217 -0.028728902
0000e0 69 95 04 3c 21 5c 02 bd 0a 73 fa bc f4 53 bc bc
       0.008092263 -0.031826142 -0.030572433 -0.02298925
0000f0 10 25 92 3c d2 5c b4 3c 92 23 a4 bc c4 20 99 3c
       0.017839938 0.022016916 -0.020036492 0.018692382
000100 c0 0d c0 3c 1d e8 1b bc c0 a3 27 3a 97 98 6d 3b
       0.023444057 -0.009515789 0.0006394945 0.003625428
000110 1f c4 eb 3c 61 dc 27 3d d8 86 12 bd eb 51 32 bc
       0.028780041 0.040981654 -0.03577313 -0.010883789
000120 83 45 51 3c 54 e0 f2 3c 16 50 0a 3d be 3b 32 3d
       0.012772921 0.029647984 0.033767782 0.043514006
000130 2b cd 8b 3b 23 46 36 bd 58 5b f9 3b ce 48 bb bc
       0.0042664013 -0.04450048 0.007609766 -0.022861864
000140 08 77 1a bd e4 59 35 3d 8e 14 30 3d f6 fe 33 bd
       -0.037711173 0.04427518 0.042988352 -0.04394432
000150 5b ea 71 3b da 67 25 bc ee fe 95 bc 28 5f fd bc
       0.0036913368 -0.010095561 -0.018310037 -0.030929163
000160 25 a8 86 3c 46 7d ea bc 39 f7 70 3c 47 15 8a 3c
       0.0164376 -0.028624188 0.01470738 0.016855849
000170 e0 ea 03 3d ff e5 98 3c 51 d4 1e bd da 20 d4 bc
       0.032206416 0.018664358 -0.0387767 -0.025894571
000180 00 2c 99 3c cf 3f 24 3c ad d4 00 bd f5 c5 f0 bc
       0.018697739 0.010024979 -0.031452823 -0.029391268
000190 d4 b4 3e 3d 0e 00 07 3d 66 d2 6a bc 52 d6 33 bc
       0.04655917 0.032959037 -0.014332389 -0.010976391
0001a0 97 31 1c bd 3e 1f 8b 3a c5 7b ea bc 3e e3 13 bd
       -0.03813323 0.0010614169 -0.028623471 -0.036105387
0001b0 2a 77 9b bb 2f 14 7a 3b 1e 19 ab bc d7 9e 07 3c
       -0.00474443 0.0038159003 -0.020886 0.008277616
0001c0 4f 2d ce bc e3 31 2f 3d 60 c9 04 3d c2 41 12 bd
       -0.02516809 0.042772185 0.03241861 -0.035707243
0001d0 45 e2 49 bc 55 6d 66 3c 39 a8 e0 3b b0 d3 5e 3c
       -0.012322013 0.014064153 0.006855991 0.013600275
0001e0 97 1c bf 3c 50 a5 f7 3a 68 1b ba bc 2f dc a2 3c
       0.023329062 0.0018893871 -0.022718146 0.019880382
0001f0 f4 e5 39 bd a3 a5 f9 bc a3 ca 34 bc b0 a1 8d bc
       -0.045385316 -0.03047449 -0.0110346405 -0.017289013
000200 4c bd 0c bc ef 7f 0b bd 4a 05 88 bc f8 e4 1a 3c
       -0.008590054 -0.034057554 -0.016604085 0.0094540045
000210 14 f5 f4 bc a0 c1 0e bc ea 3b 01 3d 8b 0d 9f 3b
       -0.029902019 -0.008713156 0.03155128 0.0048539094
000220 8c 9e b0 bb 10 c6 7f bb 7e 1e 8c 3c bb 95 e6 3c
       -0.005389994 -0.0039027967 0.017104384 0.028147569
000230 b2 29 35 3d f2 ff f9 3c d1 9a 34 3d 66 84 cf bb
       0.044229217 0.030517552 0.044092957 -0.006332922
000240 80 e1 1f bd 93 c7 5e bc 23 33 e7 3c 92 f9 97 bb
       -0.039033413 -0.013597387 0.028222626 -0.0046379054
000250 f7 67 1c bd d9 74 e1 bc fa 1b 1d bd 5b 48 07 bd
       -0.038185086 -0.027521538 -0.03835676 -0.033027988
000260 83 c6 84 bc ea a9 b7 3c 9e a6 e6 3c 54 c1 2d bd
       -0.016207939 0.022419889 0.028155621 -0.0424207
000270 f5 b3 dd 3c 66 64 07 bd 0c 35 64 bc 02 e1 86 bc
       0.02706335 -0.03305473 -0.013928663 -0.016464714
000280 a0 bc bb bb de c4 dc bb d5 87 1b bd af a8 0a bd
       -0.005729273 -0.0067373356 -0.037971336 -0.033852275
000290 5c 67 c4 bb dd aa 02 bb 31 e0 cc bc bb cf 72 3c
       -0.0059937667 -0.0019938268 -0.025009247 0.014820035
0002a0 d2 9d 20 bd 2b 05 00 ba c6 5d 16 3d ba 0d 8f bc
       -0.03921301 -0.00048835826 0.036710523 -0.0174626
0002b0 f2 60 3a 3d cb fb d2 3c 54 4c 12 bd 85 d3 d9 3c
       0.04550261 0.02575483 -0.035717323 0.026590118
0002c0 a9 7c 47 bb 72 30 8c bc b1 c0 10 3d 71 31 f7 bc
       -0.0030439293 -0.017112944 0.035340015 -0.030174943
0002d0 5c 6e bd 3b e0 5f 27 bc 0f 6b bd 3c 6a 34 9b 3c
       0.005780978 -0.0102157295 0.023122339 0.018945891
0002e0 c7 b4 bb 3c 2b 30 54 3c 4c 1f 2e bc 7a f4 f3 bb
       0.02291335 0.012950937 -0.010627579 -0.0074449154
0002f0 d9 fb 0c bd 75 96 f6 3c a1 0a 04 3d de fc b1 3c
       -0.03441987 0.03010104 0.0322367 0.021727022
000300 0d e4 cd bc 00 58 ea 38 5f e7 c5 bc 49 bd b7 bc
       -0.025133157 0.00011174381 -0.024158178 -0.022429125
000310 41 44 c3 bc fb 65 82 3c 31 ea 00 bd 9e 97 e5 3a
       -0.023836257 0.015917769 -0.031473342 0.0017516499
000320 be 3f d2 3b 8f 45 00 3d 5c ad f6 bc 1d 65 a4 bc
       0.00641629 0.031316336 -0.030111961 -0.020067746
000330 c9 26 ab bc 72 7c 07 3d cc f4 18 bc 36 c3 d9 3c
       -0.020892518 0.033077665 -0.009335708 0.026582342
000340 4a da a8 3c 0f 2e e8 3b ee bf 88 bb d0 ca 39 bc
       0.0206119 0.0070855687 -0.0041732704 -0.011339858
000350 e2 ed f4 3b 20 06 61 bb 22 62 f3 3a 3f e7 e8 ba
       0.007474647 -0.0034335926 0.0018568675 -0.0017769112
000360 7c 82 3c bd 9e 72 c5 bc 61 7c 28 3d 83 82 12 bd
       -0.046022877 -0.024102505 0.041134242 -0.035768997
000370 3b b9 8d bb 5c f3 50 3d 94 f5 99 3c b9 53 91 bb
       -0.0043250597 0.051013336 0.018793859 -0.0044350293
000380 2c 48 2b bd 68 1f f0 3c de 72 21 bd b4 ca df bb
       -0.041816875 0.02931185 -0.039416187 -0.006829584
000390 94 f0 72 bc 74 9e 32 bc 01 c4 e6 ba 71 d7 24 3d
       -0.014827866 -0.010902036 -0.0017606021 0.040244523
0003a0 b8 a3 1a 3c d8 ee 38 3d 74 bc ce 3c ca e2 e4 bc
       0.009438448 0.045149654 0.025236346 -0.027940173
0003b0 5b 43 b4 3c 85 b0 08 bd 84 b8 c0 bc fa bf 3f 3c
       0.022004774 -0.033371467 -0.023525484 0.011703486
0003c0 d6 9c 8d 3c 29 31 3e 3d da e5 98 bc 52 c7 11 3c
       0.0172867 0.0464336 -0.01866429 0.008897619
0003d0 86 c8 8a 3c aa db 39 bd 59 66 06 3d a0 36 00 bd
       0.01694132 -0.045375504 0.03281245 -0.031302094
0003e0 c7 a9 a7 3b 1f 54 72 bb 20 85 d7 bc ca 7e 09 3c
       0.0051166746 -0.003697641 -0.026308596 0.008392045
0003f0 20 6d 02 3d 6d 57 2c bc 34 23 b7 bc 5d e7 87 bc
       0.03184235 -0.010518891 -0.022355653 -0.016589815

bias f4 [256]
000000 7d b5 b6 3c 50 1d 3b 3d 68 ea 9d 3c 76 f4 f0 bc
       0.022303337 0.04568225 0.019276813 -0.029413443
000010 ca 11 0d bd 26 5f c0 bb de 05 2d bd fb fb 2a 3d
       -0.034440793 -0.0058707176 -0.042241924 0.041744214
000020 8f 03 2c bd 0f 1b 1d bd 34 ea 2e bd 51 2f f9 bc
       -0.04199558 -0.038355883 -0.042703822 -0.03041807
000030 d1 08 e5 bb a8 9e 32 3d 14 a9 8e 3b d7 d7 1c 3d
       -0.0069895764 0.043608338 0.004353652 0.03829178
000040 0e da 96 3c bd 50 a6 3b 0c 0d 20 bb 55 8c c5 3c
       0.018414523 0.0050755427 -0.002442184 0.024114767
000050 40 6a 67 3c f2 7a 93 3c a0 b3 1d 3d 12 a7 b8 bb
       0.014124453 0.01800296 0.038501382 -0.0056351507
000060 6d c8 f6 3c 25 51 2b 3d 61 bb 0b bc ff 33 dc bc
       0.030124867 0.041825432 -0.008528561 -0.026880262
000070 fe 31 ac 3c ff 26 91 3a 08 e5 0a bd 7e 93 ea 3c
       0.021019932 0.0011074244 -0.033909827 0.028634783
000080 1e 2f f5 3b e0 d2 1b bc be 29 a7 3c 52 e9 d3 bc
       0.0074824234 -0.009510726 0.020405646 -0.025868092
000090 87 0d 1c 3b 2a 4d a8 bb f5 66 b3 3c c7 2a 80 3c
       0.0023811774 -0.005136152 0.02189968 0.015645398
0000a0 a8 83 42 3a f5 90 ed bc 93 4b c9 3c 00 de 30 bc
       0.0007420131 -0.028999785 0.02457217 -0.010795116
0000b0 1b 42 7f 39 80 0b 85 bb 9f 7b ab bc 3d 01 2f bc
       0.00024343321 -0.004060209 -0.02093297 -0.010681448
0000c0 19 21 f2 3c b3 75 1e 3d 15 5b 89 3b de f2 14 bd
       0.029556798 0.038686465 0.004191766 -0.03636443
0000d0 9b 68 0c 3c 29 5a c3 3b 0a d4 11 bd 49 66 0a bb
       0.008569862 0.0059616757 -0.035602607 -0.0021118096
0000e0 33 67 9d bc 47 a0 34 bd 93 d8 14 bd a7 5c 15 bd
       -0.019214248 -0.044098165 -0.036339354 -0.036465313
0000f0 17 d4 d3 bc 5f 33 df bc 54 a6 a5 3b 5c 03 0c 3d
       -0.025857968 -0.027246175 0.0050552282 0.03418289
000100 47 32 63 3c 91 10 14 3b 65 63 f0 bc bb 92 bf bc
       0.0138669675 0.0022592882 -0.02934427 -0.023385396
000110 f2 1b 03 bd 49 67 a8 3c 25 df 1e 3d 3c 52 de bc
       -0.032009073 0.020557063 0.038787026 -0.027138822
000120 e4 8c b0 bb 38 76 ef 3c b2 81 14 3c c4 e9 21 bd
       -0.005387889 0.029231176 0.009064125 -0.039529577
000130 88 a7 03 bd 34 55 c6 bc d4 3d 22 bc 74 e5 92 3c
       -0.032142192 -0.02421055 -0.009902436 0.017931677
000140 9d c7 68 3c bd 66 f1 bc 46 83 8f 3c a9 49 2a 3d
       0.014207748 -0.029467935 0.01751865 0.041574154
000150 c2 fb ad bc 01 d9 4a 3c 6b ef 25 3d fc c1 0a bd
       -0.021238212 0.012380839 0.04051153 -0.033876404
000160 36 c8 5d bc 6c e5 08 3d 01 bb 95 3c 70 23 df 3c
       -0.013536504 0.03342192 0.018277647 0.027238578
000170 ac ff e9 3b fe eb 8c 3c 67 78 26 3d 93 a7 1f 3d
       0.007141074 0.017202374 0.04064217 0.03897817
000180 4c 49 c3 bb ff 36 b9 3c fb 86 35 3c d1 f7 19 3d
       -0.0059596654 0.022609232 0.011079545 0.03758985
000190 b5 fd b8 bc 76 e7 42 3c 18 e4 0f 3d 32 d2 db 3b
       -0.022581914 0.011896005 0.035129637 0.006708407
0001a0 58 5d 1f 3d 69 52 3b 3b 14 82 d5 3c 4b d3 f2 bc
       0.03890738 0.0028583056 0.026063003 -0.029641768
0001b0 08 4d b9 3c 96 1b b2 bc ee b2 c3 ba 72 c0 c2 bc
       0.02261974 -0.02174167 -0.0014930645 -0.023773406
0001c0 1f 5a 2f 3d 35 21 b5 ba 49 de de 3c 76 5a 2d 3d
       0.042810556 -0.00138191 0.027205603 0.0423226
0001d0 f9 b9 cc 3c 33 08 5e 3c 38 0b a3 bc f4 8a 9f bc
       0.024991022 0.0135517595 -0.01990281 -0.019475438
0001e0 c9 4b 6d 3b a8 d6 01 3d 26 48 5e bc 8a 3a 0a bd
       0.0036208502 0.031698853 -0.013567006 -0.033747233
0001f0 f6 68 92 bc 97 f8 e8 bc 6e c0 42 3d f6 25 28 3d
       -0.017872315 -0.02843885 0.047546797 0.041051827
000200 e1 7f 71 3c 3d 0e 2c bc 4e 32 13 bd a3 61 8f 3c
       0.014739961 -0.010501442 -0.035936646 0.017502612
000210 3a 36 d7 bc 98 93 17 3b b1 9f 1d bd 84 80 c6 3c
       -0.026270974 0.0023128744 -0.03848237 0.024231203
000220 ab bc 1d bc fa 95 ea 3c 09 ef 2e 3d 54 16 c9 3c
       -0.0096275015 0.028635968 0.04270843 0.02454678
000230 22 7c b9 bb 0f 03 12 3d 62 86 f1 3c f2 93 28 3d
       -0.0056605497 0.03564745 0.029483024 0.041156717
000240 e2 66 35 3d 51 74 d6 3b d2 d2 dd bb 16 18 a5 bb
       0.04428757 0.0065446277 -0.0067695165 -0.0050382717
000250 7b f6 72 3b d7 eb 32 bc 12 70 5e bc 24 23 0f 3d
       0.0037073183 -0.010920486 -0.013576524 0.034945622
000260 6f 1f 57 bc 3b 80 ec 3c 56 96 f3 3c e0 f1 0b bd
       -0.013130053 0.028869739 0.029734772 -0.034166217
000270 8e b5 a0 bc b9 44 e8 3a 4a e3 34 3d 30 55 cd bc
       -0.019617822 0.0017720676 0.044162072 -0.025065035
000280 2b 27 e0 3c e5 b4 35 bd d9 17 17 3d 76 d6 33 bd
       0.027362427 -0.044361968 0.036887977 -0.043905698
000290 4c 23 dd 3c 47 58 15 bd 42 56 29 bd 1a 0d 8e 3c
       0.02699437 -0.03646114 -0.041342027 0.017340232
0002a0 21 8f b2 bc 38 ef a5 3b c2 07 1c 3a 83 1c d5 3b
       -0.021796765 0.0050639175 0.0005952084 0.006503643
0002b0 a1 4a 1f 3d 41 0e 73 b9 74 2d 9a 3c 33 c3 a3 bc
       0.03888953 -0.00023179596 0.018820502 -0.01999054
0002c0 22 15 94 ba 6b ed 88 3c 31 c5 f0 bc d5 2c f5 bc
       -0.0011297802 0.016714772 -0.029390903 -0.029928604
0002d0 00 ec 24 3d 71 b3 e2 3b 50 72 0b bd d3 ba c3 3c
       0.04026413 0.0069183637 -0.034044564 0.023892796
0002e0 a5 27 2f 3b d2 d2 db 3c 2b 09 fb bc b9 68 2e 3d
       0.002672651 0.026833925 -0.03064402 0.04258034
0002f0 98 de e3 3c 62 ac 14 3d 2f 68 49 bc b1 5f 05 3c
       0.027816102 0.03629721 -0.012292906 0.00814049
000300 00 27 28 bd 36 81 60 bb c6 7f 7b 3c 2e 67 e2 bc
       -0.04105282 -0.0034256703 0.015350288 -0.02763709
000310 10 8e 6b 3c b3 20 61 3c 46 18 30 3d c2 fa b6 bc
       0.014377132 0.013740706 0.0429919 -0.022336368
000320 28 cd dc bc f0 a5 db bc e2 28 19 3d c9 4b e7 3c
       -0.026953295 -0.026812524 0.037392505 0.02823438
000330 82 0e ed 3c ab b1 2c bd c9 59 89 3c c0 9d 08 3d
       0.028937582 -0.042161625 0.016766446 0.033353567
000340 ac 41 6b 3c ec ab ee 3c 5a 34 9e 3c ae db ad bc
       0.014358919 0.029134713 0.019312073 -0.021222916
000350 d5 35 0a bc 53 68 35 bd 1c b1 ef 3c 8b 05 18 3d
       -0.008435686 -0.044288944 0.029259257 0.03711466
000360 b3 a3 64 3c 65 5e 11 3d 5c 77 08 bd fd 47 e6 3c
       0.013955045 0.035490412 -0.033316955 0.028110499
000370 b3 53 f4 bc fb f8 f5 bc 9f 30 25 bd 6a 62 3b 3b
       -0.029825067 -0.03002595 -0.04032957 0.0028592595
000380 73 c3 05 3d 52 0f 23 bd f3 bd f1 3c fc 99 d9 3c
       0.032657098 -0.039809532 0.02950952 0.026562683
000390 fe 56 00 3d 51 f0 60 3c 38 3f 29 bd 4c 77 72 bc
       0.031332962 0.013729171 -0.041320056 -0.01479895
0003a0 fa 92 aa 3c 7e c1 9a bc e8 17 1b 3b 8a cd 1a bd
       0.020822037 -0.018891092 0.0023665372 -0.037793674
0003b0 76 5d ed 3c 09 da 06 3c 7f 13 34 3c c4 0f cd 3c
       0.02897523 0.008230695 0.010990976 0.025031932
0003c0 22 50 5a 3c 78 44 95 3b a5 c1 67 3b 00 79 0b ba
       0.013324769 0.0045552813 0.0035363224 -0.00053204596
0003d0 77 ca c8 3b ef 76 1f bd b2 d2 a2 bc 9f e5 ac bc
       0.0061276513 -0.038931783 -0.019875858 -0.021105586
0003e0 b9 9b bf bb c8 d4 c5 3c 2a ae 1f 3d 51 97 7f 3b
       -0.005847421 0.024149314 0.038984455 0.0039000104
0003f0 e9 e4 16 bd e0 ac 1b bc 6e 56 18 3d be a9 ff ba
       -0.0368394 -0.009501666 0.0371918 -0.0019505543

weight f4 [1, 256]
000000 c4 1b 63 bd 32 48 a4 bc 96 52 94 bc 10 27 7a 3c
       -0.0554464 -0.020053957 -0.018105786 0.015268102
000010 95 8c 3b 3d 74 6b 02 bd 95 61 90 3d 23 33 85 3d
       0.045788366 -0.031840757 0.07049862 0.06503894
000020 9c 1e 1a bd 9b 7c 64 bc 67 9b 82 bd 3b c3 2d 3d
       -0.037626848 -0.013945724 -0.06377297 0.042422514
000030 8f a7 30 bc 47 35 f3 bc c2 4d 8f 3d c8 70 50 3d
       -0.010782137 -0.02968849 0.06997253 0.050888807
000040 d9 64 39 3d 44 98 75 3d 11 e2 42 3d 62 9e 69 3d
       0.04526219 0.059959665 0.047578875 0.05703581
000050 e0 d4 50 bd 46 7e 17 3c 83 61 36 bd ef 13 37 3d
       -0.050984263 0.0092464145 -0.04452659 0.044696745
000060 0b a1 53 bd 03 08 23 bd 3a 10 07 bd 87 4f 5a 3d
       -0.051667254 -0.039802562 -0.03297446 0.0532985
000070 45 e1 81 3d de 83 31 3d d2 55 05 bd 52 c0 26 3d
       0.06341795 0.04333865 -0.032552548 0.040710755
000080 6e 85 88 3d 69 bb 04 bd bf 8b 79 3d f7 6b 36 bd
       0.06666075 -0.03240529 0.060924288 -0.044536557
000090 04 65 83 bd f5 1a 24 3d 9a 34 87 3d b3 a1 32 bd
       -0.064157516 0.04006477 0.0660183 -0.04361124
0000a0 a0 46 25 3c 53 78 6a bd 34 9a 33 3d 9f c5 05 3d
       0.010087639 -0.057243656 0.04384823 0.03265917
0000b0 4f 3f 34 bd d9 aa e2 bc 2b 76 3d bd af 12 01 3c
       -0.04400569 -0.027669357 -0.046255272 0.00787799
0000c0 c6 65 1f bd bc b3 ad 3c 3f c6 20 bd 66 bd 65 bd
       -0.038915418 0.021203868 -0.039251562 -0.056088828
0000d0 83 ef 03 3d 93 a8 60 bd 08 9f 6b 3c aa ae 60 3d
       0.032210838 -0.054848265 0.014381178 0.054854073
0000e0 61 e6 0d bd 2d f6 77 3d c3 72 8c bd 03 f5 18 3d
       -0.034643535 0.060537506 -0.068578266 0.037343036
0000f0 54 96 5b bd ab d0 05 3d 72 04 11 3d 77 e1 65 bd
       -0.05361016 0.032669704 0.03540463 -0.056123223
000100 62 68 b4 3c ca 6f 4e bd 02 a2 eb bc 05 bc 9a bc
       0.02202243 -0.05039958 -0.028763775 -0.018888483
000110 e4 e4 d1 bc 4a 1c d9 3c 48 a0 75 bd bb 9d be bc
       -0.025621839 0.026502747 -0.05996731 -0.023268571
000120 96 a6 36 bd 02 6d 56 bd 3c fb 98 3c 95 59 3d bd
       -0.044592462 -0.05235005 0.018674485 -0.04622801
000130 d2 a8 22 bd 66 c0 66 3d eb 63 0f 3c 1f c2 70 bc
       -0.03971178 0.05633583 0.00875185 -0.01469472
000140 79 58 80 3d 12 34 63 bc 43 ab 13 3d d7 29 84 bd
       0.06266875 -0.013867395 0.036052 -0.06453293
000150 f4 0d 02 bd 2d 2e 5e bd 92 83 2e 3c 53 52 01 3d
       -0.031751588 -0.054243255 0.010651486 0.03157265
000160 ac 2e 12 bc 2f 32 65 3d 56 7a 2b bd 30 3a 1b bd
       -0.00892226 0.055956062 -0.041864716 -0.03789729
000170 46 ef 2e bd 86 21 7d bd 2e b9 70 3d 43 0e 8a 3d
       -0.042708658 -0.06179955 0.05877035 0.067410015
000180 d8 fd 10 3c b0 bb 52 3d 0c c3 f8 bc 2c 7b b8 bc
       0.008849584 0.051448524 -0.030366443 -0.02251967
000190 b8 39 ef 3c 85 77 6b 3d 9a 08 1d bd 68 1f 4b bd
       0.029202327 0.05748703 -0.03833828 -0.0495905
0001a0 96 00 61 bd c6 e7 24 3d c7 14 95 3d 0d 8c 1c bd
       -0.0549322 0.0402601 0.072793536 -0.0382195
0001b0 da fc d7 3c d0 bc 80 bd ec 73 9a 3c c9 9a 51 3d
       0.026365686 -0.06286013 0.018854104 0.051173005
0001c0 ef a2 e0 bc 9b fa 03 bd bf 30 22 bd ee 0d 57 3c
       -0.027421443 -0.032221418 -0.03959727 0.01312588
0001d0 f0 36 74 bd 7a 03 68 bd cb 79 30 3c d9 85 9f bc
       -0.059622705 -0.05664394 0.010771225 -0.019473003
0001e0 3d b1 32 3c 2b f9 96 bc ad e4 1b 3c f3 99 44 3c
       0.010906515 -0.01842936 0.00951497 0.011999595
0001f0 5f e2 0f 3d 5f 8c 2f bd 79 c1 48 bc 69 88 54 bd
       0.035127994 -0.042858478 -0.012253159 -0.051887903
000200 ff ff ba 3c 44 54 ef bc aa 31 cc 3c 19 e6 21 3d
       0.022827147 -0.029214986 0.024926025 0.03952608
000210 41 ec 97 3c 2b 01 c1 bc bd d4 dc 3c db 32 cf 3c
       0.018545272 -0.023560127 0.02695691 0.025292804
000220 89 c5 24 bd 66 c1 9a bc 9c 31 7e 3c 84 89 53 3d
       -0.040227447 -0.018891048 0.0155147575 0.051644817
000230 ed 20 4f 3d b2 5d 46 3d 1d 82 57 bd d7 6e 55 bc
       0.05056851 0.0484292 -0.05261432 -0.013026915
000240 a5 7e e4 bc b8 84 c7 bc f0 70 33 3d c4 0f c4 3c
       -0.02789242 -0.024355277 0.043808877 0.023933299
000250 c5 4a 4b 3d 57 8e 61 3d 1c fc 7d 3d 30 dc c0 bc
       0.049631853 0.055067386 0.06200801 -0.023542494
000260 4b 78 84 bd 7b b0 22 3d 28 dc 82 bd fc 04 3b 3c
       -0.064682566 0.039719086 -0.06389648 0.011414763
000270 07 31 54 3d 80 59 39 3d 58 d0 27 3d fa 97 80 3d
       0.05180457 0.04525137 0.040970176 0.06278987
000280 50 53 ab bc 0b 1f 10 3d fa e6 26 bd 3d 76 59 bd
       -0.02091375 0.035185855 -0.04074762 -0.053091276
000290 d2 31 a8 bc 5d 48 10 3d 36 9b 5b bd 47 d2 d0 3b
       -0.020531569 0.03522526 -0.053614818 0.0063727233
0002a0 6d 0f 28 bd 81 b7 2d bc cc 89 0b 3d 7f 63 03 3d
       -0.041030336 -0.010602833 0.03406696 0.03207731
0002b0 7d f8 3f 3d e2 54 12 3d 42 a7 29 bd bf df 2b 3d
       0.046867836 0.03572548 -0.041419275 0.041961428
0002c0 e3 91 da bc d2 ac 30 bd 02 49 1f bd 51 72 1b 3d
       -0.026680892 -0.043133564 -0.038887985 0.037950817
0002d0 fe 91 b5 3c aa a4 4e 3d 5c 0d 5c bd 8b 1b 2a 3c
       0.022164341 0.050450005 -0.053723678 0.010382543
0002e0 74 d8 2d 3d 3e 5c 6c 3d 59 e4 0c bd 3a ef e4 3c
       0.042442754 0.057705157 -0.034397457 0.027946103
0002f0 a8 5d 5a 3d f1 83 99 3c 38 96 53 3c 4d 9a 87 bd
       0.053311974 0.018739672 0.012914233 -0.066212274
000300 7c 45 2f bd 40 5b a2 3b 83 46 72 bd 64 13 35 3d
       -0.042790875 0.0049547255 -0.059149276 0.044207945
000310 bb c9 69 bd 60 5d 63 bd 8d a0 6f bd 62 65 60 bc
       -0.05707715 -0.05550897 -0.058502723 -0.013696047
000320 f5 22 4b bd b6 81 24 3c 24 81 8b 3d c8 e3 6c bc
       -0.049593884 0.010040691 0.06811741 -0.014458604
000330 86 c0 11 3d e8 21 7c 3c cf 66 1b bd 6a 30 54 bd
       0.035583995 0.015388943 -0.037939843 -0.051803984
000340 0e fa f5 3b b2 64 1d bd 48 2e 1a 3d 1c 4f db bc
       0.0075066155 -0.03842611 0.037641793 -0.02677112
000350 59 49 03 3d fa f3 51 bb 17 c8 50 3d a0 aa 37 3d
       0.03205237 -0.003203629 0.05097207 0.044840455
000360 47 20 af bc b2 a0 7b 3d 2f 8d f4 bc 3e f3 76 bc
       -0.021377696 0.061432548 -0.029852478 -0.015072642
000370 98 56 41 bd f9 ad 25 bd d8 a4 0f bd 65 1f 3f 3d
       -0.047201723 -0.040449116 -0.035069317 0.0466608
000380 53 49 79 3d 31 39 28 bd 44 27 6a bd 7f b5 05 3d
       0.060860943 -0.041070167 -0.057166353 0.03264379
000390 73 e7 2a 3d 08 50 89 bc d6 ef 58 bd 1c bb 82 3d
       0.041724633 -0.016761795 -0.0529631 0.063833445
0003a0 54 81 4c bd 4e 83 a9 bc 33 24 1f bd 0c 22 7d bc
       -0.049928024 -0.020692494 -0.03885288 -0.015450012
0003b0 8a a1 5d bd 53 c8 1b 3d e7 e4 ac 3c b0 85 da bc
       -0.054109134 0.03803284 0.021105243 -0.026675075
0003c0 ce 2e 18 3c 80 05 8b 3d da bc 4b 3c 82 24 6f bd
       0.009288503 0.067881584 0.012435162 -0.058384426
0003d0 17 7f 68 3d 4a 07 c9 bc 47 ea 3f bd dc b7 b7 bc
       0.056761827 -0.024539609 -0.046854284 -0.022426538
0003e0 8d 82 16 3d 0f 46 20 3c 0e 37 52 bd 34 1c 2c 3d
       0.036745597 0.009782328 -0.051322035 0.042019084
0003f0 2d 97 b5 3c f8 dd 60 3d 68 13 4b 3c 70 ce 41 3d
       0.022166813 0.054899186 0.0123947635 0.047316015
